…
[38;5;15mtrain[39m[38;5;204m.[39m[38;5;15minit_checkpoint[39m[38;5;15m [39m[38;5;204m=[39m[38;5;15m [39m[38;5;186m"[39m[38;5;186m"[39m
[38;5;15mtrain[39m[38;5;204m.[39m[38;5;15mcheckpointer[39m[38;5;15m[[39m[38;5;186m"[39m[38;5;186mperiod[39m[38;5;186m"[39m[38;5;15m][39m[38;5;15m [39m[38;5;204m=[39m[38;5;15m [39m[38;5;141m200[39m

[05/13 16:05:35] detectron2 INFO: Full config saved to output/busi_vit_b16_dense_inv/config.yaml
[05/13 16:05:35] d2.utils.env INFO: Using a generated random seed 35820604
[05/13 16:05:41] detectron2 INFO: Model:
BUSIClassificationNet(
  (model): DenseViTWithPatchScores(
    (conv_proj): Conv2d(3, 768, kernel_size=(16, 16), stride=(16, 16))
    (encoder): Encoder(
      (dropout): Dropout(p=0.0, inplace=False)
      (layers): Sequential(
        (encoder_layer_0): EncoderBlock(
          (ln_1): LayerNorm((768,), eps=1e-06, elementwise_affine=True)
          (self_attention): MultiheadAttention(
            (out_proj): NonDynamicallyQuantizableLinear(in_features=768, out_features=768, bias=True)
          )
          (dropout): Dropout(p=0.0, inplace=False)
          (ln_2): LayerNorm((768,), eps=1e-06, elementwise_affine=True)
          (mlp): MLPBlock(
            (0): Linear(in_features=768, out_features=3072, bias=True)
            (1): GELU(approximate='none')
            (2): Dropout(p=0.0, inplace=False)
            (3): Linear(in_features=3072, out_features=768, bias=True)
            (4): Dropout(p=0.0, inplace=False)
          )
        )
        (encoder_layer_1): EncoderBlock(
          (ln_1): LayerNorm((768,), eps=1e-06, elementwise_affine=True)
          (self_attention): MultiheadAttention(
            (out_proj): NonDynamicallyQuantizableLinear(in_features=768, out_features=768, bias=True)
          )
          (dropout): Dropout(p=0.0, inplace=False)
          (ln_2): LayerNorm((768,), eps=1e-06, elementwise_affine=True)
          (mlp): MLPBlock(
            (0): Linear(in_features=768, out_features=3072, bias=True)
            (1): GELU(approximate='none')
            (2): Dropout(p=0.0, inplace=False)
            (3): Linear(in_features=3072, out_features=768, bias=True)
            (4): Dropout(p=0.0, inplace=False)
          )
        )
        (encoder_layer_2): EncoderBlock(
          (ln_1): LayerNorm((768,), eps=1e-06, elementwise_affine=True)
          (self_attention): MultiheadAttention(
            (out_proj): NonDynamicallyQuantizableLinear(in_features=768, out_features=768, bias=True)
          )
          (dropout): Dropout(p=0.0, inplace=False)
          (ln_2): LayerNorm((768,), eps=1e-06, elementwise_affine=True)
          (mlp): MLPBlock(
            (0): Linear(in_features=768, out_features=3072, bias=True)
            (1): GELU(approximate='none')
            (2): Dropout(p=0.0, inplace=False)
            (3): Linear(in_features=3072, out_features=768, bias=True)
            (4): Dropout(p=0.0, inplace=False)
          )
        )
        (encoder_layer_3): EncoderBlock(
          (ln_1): LayerNorm((768,), eps=1e-06, elementwise_affine=True)
          (self_attention): MultiheadAttention(
            (out_proj): NonDynamicallyQuantizableLinear(in_features=768, out_features=768, bias=True)
          )
          (dropout): Dropout(p=0.0, inplace=False)
          (ln_2): LayerNorm((768,), eps=1e-06, elementwise_affine=True)
          (mlp): MLPBlock(
            (0): Linear(in_features=768, out_features=3072, bias=True)
            (1): GELU(approximate='none')
            (2): Dropout(p=0.0, inplace=False)
            (3): Linear(in_features=3072, out_features=768, bias=True)
            (4): Dropout(p=0.0, inplace=False)
          )
        )
        (encoder_layer_4): EncoderBlock(
          (ln_1): LayerNorm((768,), eps=1e-06, elementwise_affine=True)
          (self_attention): MultiheadAttention(
            (out_proj): NonDynamicallyQuantizableLinear(in_features=768, out_features=768, bias=True)
          )
          (dropout): Dropout(p=0.0, inplace=False)
          (ln_2): LayerNorm((768,), eps=1e-06, elementwise_affine=True)
          (mlp): MLPBlock(
            (0): Linear(in_features=768, out_features=3072, bias=True)
            (1): GELU(approximate='none')
            (2): Dropout(p=0.0, inplace=False)
            (3): Linear(in_features=3072, out_features=768, bias=True)
            (4): Dropout(p=0.0, inplace=False)
          )
        )
        (encoder_layer_5): EncoderBlock(
          (ln_1): LayerNorm((768,), eps=1e-06, elementwise_affine=True)
          (self_attention): MultiheadAttention(
            (out_proj): NonDynamicallyQuantizableLinear(in_features=768, out_features=768, bias=True)
          )
          (dropout): Dropout(p=0.0, inplace=False)
          (ln_2): LayerNorm((768,), eps=1e-06, elementwise_affine=True)
          (mlp): MLPBlock(
            (0): Linear(in_features=768, out_features=3072, bias=True)
            (1): GELU(approximate='none')
            (2): Dropout(p=0.0, inplace=False)
            (3): Linear(in_features=3072, out_features=768, bias=True)
            (4): Dropout(p=0.0, inplace=False)
          )
        )
        (encoder_layer_6): EncoderBlock(
          (ln_1): LayerNorm((768,), eps=1e-06, elementwise_affine=True)
          (self_attention): MultiheadAttention(
            (out_proj): NonDynamicallyQuantizableLinear(in_features=768, out_features=768, bias=True)
          )
          (dropout): Dropout(p=0.0, inplace=False)
          (ln_2): LayerNorm((768,), eps=1e-06, elementwise_affine=True)
          (mlp): MLPBlock(
            (0): Linear(in_features=768, out_features=3072, bias=True)
            (1): GELU(approximate='none')
            (2): Dropout(p=0.0, inplace=False)
            (3): Linear(in_features=3072, out_features=768, bias=True)
            (4): Dropout(p=0.0, inplace=False)
          )
        )
        (encoder_layer_7): EncoderBlock(
          (ln_1): LayerNorm((768,), eps=1e-06, elementwise_affine=True)
          (self_attention): MultiheadAttention(
            (out_proj): NonDynamicallyQuantizableLinear(in_features=768, out_features=768, bias=True)
          )
          (dropout): Dropout(p=0.0, inplace=False)
          (ln_2): LayerNorm((768,), eps=1e-06, elementwise_affine=True)
          (mlp): MLPBlock(
            (0): Linear(in_features=768, out_features=3072, bias=True)
            (1): GELU(approximate='none')
            (2): Dropout(p=0.0, inplace=False)
            (3): Linear(in_features=3072, out_features=768, bias=True)
            (4): Dropout(p=0.0, inplace=False)
          )
        )
        (encoder_layer_8): EncoderBlock(
          (ln_1): LayerNorm((768,), eps=1e-06, elementwise_affine=True)
          (self_attention): MultiheadAttention(
            (out_proj): NonDynamicallyQuantizableLinear(in_features=768, out_features=768, bias=True)
          )
          (dropout): Dropout(p=0.0, inplace=False)
          (ln_2): LayerNorm((768,), eps=1e-06, elementwise_affine=True)
          (mlp): MLPBlock(
            (0): Linear(in_features=768, out_features=3072, bias=True)
            (1): GELU(approximate='none')
            (2): Dropout(p=0.0, inplace=False)
            (3): Linear(in_features=3072, out_features=768, bias=True)
            (4): Dropout(p=0.0, inplace=False)
          )
        )
        (encoder_layer_9): EncoderBlock(
          (ln_1): LayerNorm((768,), eps=1e-06, elementwise_affine=True)
          (self_attention): MultiheadAttention(
            (out_proj): NonDynamicallyQuantizableLinear(in_features=768, out_features=768, bias=True)
          )
          (dropout): Dropout(p=0.0, inplace=False)
          (ln_2): LayerNorm((768,), eps=1e-06, elementwise_affine=True)
          (mlp): MLPBlock(
            (0): Linear(in_features=768, out_features=3072, bias=True)
            (1): GELU(approximate='none')
            (2): Dropout(p=0.0, inplace=False)
            (3): Linear(in_features=3072, out_features=768, bias=True)
            (4): Dropout(p=0.0, inplace=False)
          )
        )
        (encoder_layer_10): EncoderBlock(
          (ln_1): LayerNorm((768,), eps=1e-06, elementwise_affine=True)
          (self_attention): MultiheadAttention(
            (out_proj): NonDynamicallyQuantizableLinear(in_features=768, out_features=768, bias=True)
          )
          (dropout): Dropout(p=0.0, inplace=False)
          (ln_2): LayerNorm((768,), eps=1e-06, elementwise_affine=True)
          (mlp): MLPBlock(
            (0): Linear(in_features=768, out_features=3072, bias=True)
            (1): GELU(approximate='none')
            (2): Dropout(p=0.0, inplace=False)
            (3): Linear(in_features=3072, out_features=768, bias=True)
            (4): Dropout(p=0.0, inplace=False)
          )
        )
        (encoder_layer_11): EncoderBlock(
          (ln_1): LayerNorm((768,), eps=1e-06, elementwise_affine=True)
          (self_attention): MultiheadAttention(
            (out_proj): NonDynamicallyQuantizableLinear(in_features=768, out_features=768, bias=True)
          )
          (dropout): Dropout(p=0.0, inplace=False)
          (ln_2): LayerNorm((768,), eps=1e-06, elementwise_affine=True)
          (mlp): MLPBlock(
            (0): Linear(in_features=768, out_features=3072, bias=True)
            (1): GELU(approximate='none')
            (2): Dropout(p=0.0, inplace=False)
            (3): Linear(in_features=3072, out_features=768, bias=True)
            (4): Dropout(p=0.0, inplace=False)
          )
        )
      )
      (ln): LayerNorm((768,), eps=1e-06, elementwise_affine=True)
    )
    (heads): Sequential(
      (head): Linear(in_features=768, out_features=3, bias=True)
    )
  )
)
[05/13 16:05:43] d2.checkpoint.detection_checkpoint INFO: [DetectionCheckpointer] Loading from  ...
[05/13 16:05:43] fvcore.common.checkpoint INFO: No checkpoint found. Initializing model from scratch
[05/13 16:05:43] d2.engine.train_loop INFO: Starting training from iteration 0
[05/13 16:05:57] d2.utils.events INFO:  eta: 0:08:16  iter: 49  total_loss: 1.002    time: 0.0981  last_time: 0.1044  data_time: 0.0002  last_data_time: 0.0003   lr: 1.376e-05  max_mem: 2344M
…
