…
[38;5;15mtrain[39m[38;5;204m.[39m[38;5;15mcheckpointer[39m[38;5;15m[[39m[38;5;186m"[39m[38;5;186mperiod[39m[38;5;186m"[39m[38;5;15m][39m[38;5;15m [39m[38;5;204m=[39m[38;5;15m [39m[38;5;141m1000[39m

[05/11 18:57:53] d2.config.lazy WARNING: The config contains objects that cannot serialize to a valid yaml. output/pathmnist_vit_b16_dense/config.yaml is human-readable but cannot be loaded.
[05/11 18:57:53] d2.config.lazy WARNING: Config is saved using cloudpickle at output/pathmnist_vit_b16_dense/config.yaml.pkl.
[05/11 18:57:53] detectron2 INFO: Full config saved to output/pathmnist_vit_b16_dense/config.yaml
[05/11 18:57:53] d2.utils.env INFO: Using a generated random seed 56250131
[05/11 18:57:57] detectron2 INFO: Model:
ClassificationNet(
  (model): dense_vit(
    (conv_proj): Conv2d(3, 768, kernel_size=(16, 16), stride=(16, 16))
    (encoder): Encoder(
      (dropout): Dropout(p=0.0, inplace=False)
      (layers): Sequential(
        (encoder_layer_0): EncoderBlock(
          (ln_1): LayerNorm((768,), eps=1e-06, elementwise_affine=True)
          (self_attention): MultiheadAttention(
            (out_proj): NonDynamicallyQuantizableLinear(in_features=768, out_features=768, bias=True)
          )
          (dropout): Dropout(p=0.0, inplace=False)
          (ln_2): LayerNorm((768,), eps=1e-06, elementwise_affine=True)
          (mlp): MLPBlock(
            (0): Linear(in_features=768, out_features=3072, bias=True)
            (1): GELU(approximate='none')
            (2): Dropout(p=0.0, inplace=False)
            (3): Linear(in_features=3072, out_features=768, bias=True)
            (4): Dropout(p=0.0, inplace=False)
          )
        )
        (encoder_layer_1): EncoderBlock(
          (ln_1): LayerNorm((768,), eps=1e-06, elementwise_affine=True)
          (self_attention): MultiheadAttention(
            (out_proj): NonDynamicallyQuantizableLinear(in_features=768, out_features=768, bias=True)
          )
          (dropout): Dropout(p=0.0, inplace=False)
          (ln_2): LayerNorm((768,), eps=1e-06, elementwise_affine=True)
          (mlp): MLPBlock(
            (0): Linear(in_features=768, out_features=3072, bias=True)
            (1): GELU(approximate='none')
            (2): Dropout(p=0.0, inplace=False)
            (3): Linear(in_features=3072, out_features=768, bias=True)
            (4): Dropout(p=0.0, inplace=False)
          )
        )
        (encoder_layer_2): EncoderBlock(
          (ln_1): LayerNorm((768,), eps=1e-06, elementwise_affine=True)
          (self_attention): MultiheadAttention(
            (out_proj): NonDynamicallyQuantizableLinear(in_features=768, out_features=768, bias=True)
          )
          (dropout): Dropout(p=0.0, inplace=False)
          (ln_2): LayerNorm((768,), eps=1e-06, elementwise_affine=True)
          (mlp): MLPBlock(
            (0): Linear(in_features=768, out_features=3072, bias=True)
            (1): GELU(approximate='none')
            (2): Dropout(p=0.0, inplace=False)
            (3): Linear(in_features=3072, out_features=768, bias=True)
            (4): Dropout(p=0.0, inplace=False)
          )
        )
        (encoder_layer_3): EncoderBlock(
          (ln_1): LayerNorm((768,), eps=1e-06, elementwise_affine=True)
          (self_attention): MultiheadAttention(
            (out_proj): NonDynamicallyQuantizableLinear(in_features=768, out_features=768, bias=True)
          )
          (dropout): Dropout(p=0.0, inplace=False)
          (ln_2): LayerNorm((768,), eps=1e-06, elementwise_affine=True)
          (mlp): MLPBlock(
            (0): Linear(in_features=768, out_features=3072, bias=True)
            (1): GELU(approximate='none')
            (2): Dropout(p=0.0, inplace=False)
            (3): Linear(in_features=3072, out_features=768, bias=True)
            (4): Dropout(p=0.0, inplace=False)
          )
        )
        (encoder_layer_4): EncoderBlock(
          (ln_1): LayerNorm((768,), eps=1e-06, elementwise_affine=True)
          (self_attention): MultiheadAttention(
            (out_proj): NonDynamicallyQuantizableLinear(in_features=768, out_features=768, bias=True)
          )
          (dropout): Dropout(p=0.0, inplace=False)
          (ln_2): LayerNorm((768,), eps=1e-06, elementwise_affine=True)
          (mlp): MLPBlock(
            (0): Linear(in_features=768, out_features=3072, bias=True)
            (1): GELU(approximate='none')
            (2): Dropout(p=0.0, inplace=False)
            (3): Linear(in_features=3072, out_features=768, bias=True)
            (4): Dropout(p=0.0, inplace=False)
          )
        )
        (encoder_layer_5): EncoderBlock(
          (ln_1): LayerNorm((768,), eps=1e-06, elementwise_affine=True)
          (self_attention): MultiheadAttention(
            (out_proj): NonDynamicallyQuantizableLinear(in_features=768, out_features=768, bias=True)
          )
          (dropout): Dropout(p=0.0, inplace=False)
          (ln_2): LayerNorm((768,), eps=1e-06, elementwise_affine=True)
          (mlp): MLPBlock(
            (0): Linear(in_features=768, out_features=3072, bias=True)
            (1): GELU(approximate='none')
            (2): Dropout(p=0.0, inplace=False)
            (3): Linear(in_features=3072, out_features=768, bias=True)
            (4): Dropout(p=0.0, inplace=False)
          )
        )
        (encoder_layer_6): EncoderBlock(
          (ln_1): LayerNorm((768,), eps=1e-06, elementwise_affine=True)
          (self_attention): MultiheadAttention(
            (out_proj): NonDynamicallyQuantizableLinear(in_features=768, out_features=768, bias=True)
          )
          (dropout): Dropout(p=0.0, inplace=False)
          (ln_2): LayerNorm((768,), eps=1e-06, elementwise_affine=True)
          (mlp): MLPBlock(
            (0): Linear(in_features=768, out_features=3072, bias=True)
            (1): GELU(approximate='none')
            (2): Dropout(p=0.0, inplace=False)
            (3): Linear(in_features=3072, out_features=768, bias=True)
            (4): Dropout(p=0.0, inplace=False)
          )
        )
        (encoder_layer_7): EncoderBlock(
          (ln_1): LayerNorm((768,), eps=1e-06, elementwise_affine=True)
          (self_attention): MultiheadAttention(
            (out_proj): NonDynamicallyQuantizableLinear(in_features=768, out_features=768, bias=True)
          )
          (dropout): Dropout(p=0.0, inplace=False)
          (ln_2): LayerNorm((768,), eps=1e-06, elementwise_affine=True)
          (mlp): MLPBlock(
            (0): Linear(in_features=768, out_features=3072, bias=True)
            (1): GELU(approximate='none')
            (2): Dropout(p=0.0, inplace=False)
            (3): Linear(in_features=3072, out_features=768, bias=True)
            (4): Dropout(p=0.0, inplace=False)
          )
        )
        (encoder_layer_8): EncoderBlock(
          (ln_1): LayerNorm((768,), eps=1e-06, elementwise_affine=True)
          (self_attention): MultiheadAttention(
            (out_proj): NonDynamicallyQuantizableLinear(in_features=768, out_features=768, bias=True)
          )
          (dropout): Dropout(p=0.0, inplace=False)
          (ln_2): LayerNorm((768,), eps=1e-06, elementwise_affine=True)
          (mlp): MLPBlock(
            (0): Linear(in_features=768, out_features=3072, bias=True)
            (1): GELU(approximate='none')
            (2): Dropout(p=0.0, inplace=False)
            (3): Linear(in_features=3072, out_features=768, bias=True)
            (4): Dropout(p=0.0, inplace=False)
          )
        )
        (encoder_layer_9): EncoderBlock(
          (ln_1): LayerNorm((768,), eps=1e-06, elementwise_affine=True)
          (self_attention): MultiheadAttention(
            (out_proj): NonDynamicallyQuantizableLinear(in_features=768, out_features=768, bias=True)
          )
          (dropout): Dropout(p=0.0, inplace=False)
          (ln_2): LayerNorm((768,), eps=1e-06, elementwise_affine=True)
          (mlp): MLPBlock(
            (0): Linear(in_features=768, out_features=3072, bias=True)
            (1): GELU(approximate='none')
            (2): Dropout(p=0.0, inplace=False)
            (3): Linear(in_features=3072, out_features=768, bias=True)
            (4): Dropout(p=0.0, inplace=False)
          )
        )
        (encoder_layer_10): EncoderBlock(
          (ln_1): LayerNorm((768,), eps=1e-06, elementwise_affine=True)
          (self_attention): MultiheadAttention(
            (out_proj): NonDynamicallyQuantizableLinear(in_features=768, out_features=768, bias=True)
          )
          (dropout): Dropout(p=0.0, inplace=False)
          (ln_2): LayerNorm((768,), eps=1e-06, elementwise_affine=True)
          (mlp): MLPBlock(
            (0): Linear(in_features=768, out_features=3072, bias=True)
            (1): GELU(approximate='none')
            (2): Dropout(p=0.0, inplace=False)
            (3): Linear(in_features=3072, out_features=768, bias=True)
            (4): Dropout(p=0.0, inplace=False)
          )
        )
        (encoder_layer_11): EncoderBlock(
          (ln_1): LayerNorm((768,), eps=1e-06, elementwise_affine=True)
          (self_attention): MultiheadAttention(
            (out_proj): NonDynamicallyQuantizableLinear(in_features=768, out_features=768, bias=True)
          )
          (dropout): Dropout(p=0.0, inplace=False)
          (ln_2): LayerNorm((768,), eps=1e-06, elementwise_affine=True)
          (mlp): MLPBlock(
            (0): Linear(in_features=768, out_features=3072, bias=True)
            (1): GELU(approximate='none')
            (2): Dropout(p=0.0, inplace=False)
            (3): Linear(in_features=3072, out_features=768, bias=True)
            (4): Dropout(p=0.0, inplace=False)
          )
        )
      )
      (ln): LayerNorm((768,), eps=1e-06, elementwise_affine=True)
    )
    (heads): Sequential(
      (head): Linear(in_features=768, out_features=9, bias=True)
    )
  )
)
[05/11 19:00:45] detectron2 INFO: Rank of current process: 0. World size: 1
[05/11 19:00:46] detectron2 INFO: Environment info:
-------------------------------  -------------------------------------------------------------------------------------------------------------------------------------------------------------------------------------------------------------------------
…
